…
{\colortbl;\red255\green255\blue255;\red25\green25\blue25;\red255\green255\blue255;}
{\*\expandedcolortbl;;\cssrgb\c12941\c12941\c12941;\cssrgb\c100000\c100000\c100000;}
\margl1440\margr1440\vieww11520\viewh8400\viewkind0
\deftab720
\pard\pardeftab720\partightenfactor0

\f0\fs28 \cf2 \cb3 \expnd0\expndtw0\kerning0
\outl0\strokewidth0 \strokec2 [[0.1, 0.01, 0.001, 0.0001], [100, 500, 1000], [True, False]]\
Files already downloaded and verified\
----------------------------------------------------------------\
        Layer (type)               Output Shape         Param #\
================================================================\
            Conv2d-1           [-1, 16, 32, 32]             432\
       BatchNorm2d-2           [-1, 16, 32, 32]              32\
              ReLU-3           [-1, 16, 32, 32]               0\
            Conv2d-4           [-1, 16, 32, 32]           2,304\
       BatchNorm2d-5           [-1, 16, 32, 32]              32\
              ReLU-6           [-1, 16, 32, 32]               0\
            Conv2d-7           [-1, 16, 32, 32]           2,304\
       BatchNorm2d-8           [-1, 16, 32, 32]              32\
              ReLU-9           [-1, 16, 32, 32]               0\
       BasicBlock-10           [-1, 16, 32, 32]               0\
           Conv2d-11           [-1, 16, 32, 32]           2,304\
      BatchNorm2d-12           [-1, 16, 32, 32]              32\
             ReLU-13           [-1, 16, 32, 32]               0\
           Conv2d-14           [-1, 16, 32, 32]           2,304\
      BatchNorm2d-15           [-1, 16, 32, 32]              32\
             ReLU-16           [-1, 16, 32, 32]               0\
       BasicBlock-17           [-1, 16, 32, 32]               0\
           Conv2d-18           [-1, 32, 16, 16]           4,608\
      BatchNorm2d-19           [-1, 32, 16, 16]              64\
             ReLU-20           [-1, 32, 16, 16]               0\
           Conv2d-21           [-1, 32, 16, 16]           9,216\
      BatchNorm2d-22           [-1, 32, 16, 16]              64\
           Conv2d-23           [-1, 32, 16, 16]           4,608\
      BatchNorm2d-24           [-1, 32, 16, 16]              64\
             ReLU-25           [-1, 32, 16, 16]               0\
       BasicBlock-26           [-1, 32, 16, 16]               0\
           Conv2d-27           [-1, 32, 16, 16]           9,216\
      BatchNorm2d-28           [-1, 32, 16, 16]              64\
             ReLU-29           [-1, 32, 16, 16]               0\
           Conv2d-30           [-1, 32, 16, 16]           9,216\
      BatchNorm2d-31           [-1, 32, 16, 16]              64\
             ReLU-32           [-1, 32, 16, 16]               0\
       BasicBlock-33           [-1, 32, 16, 16]               0\
           Conv2d-34             [-1, 64, 8, 8]          18,432\
      BatchNorm2d-35             [-1, 64, 8, 8]             128\
             ReLU-36             [-1, 64, 8, 8]               0\
           Conv2d-37             [-1, 64, 8, 8]          36,864\
      BatchNorm2d-38             [-1, 64, 8, 8]             128\
           Conv2d-39             [-1, 64, 8, 8]          18,432\
      BatchNorm2d-40             [-1, 64, 8, 8]             128\
             ReLU-41             [-1, 64, 8, 8]               0\
       BasicBlock-42             [-1, 64, 8, 8]               0\
           Conv2d-43             [-1, 64, 8, 8]          36,864\
      BatchNorm2d-44             [-1, 64, 8, 8]             128\
             ReLU-45             [-1, 64, 8, 8]               0\
           Conv2d-46             [-1, 64, 8, 8]          36,864\
      BatchNorm2d-47             [-1, 64, 8, 8]             128\
             ReLU-48             [-1, 64, 8, 8]               0\
       BasicBlock-49             [-1, 64, 8, 8]               0\
        AvgPool2d-50             [-1, 64, 1, 1]               0\
           Linear-51                   [-1, 10]             650\
================================================================\
Total params: 195,738\
Trainable params: 195,738\
Non-trainable params: 0\
----------------------------------------------------------------\
Input size (MB): 0.01\
Forward/backward pass size (MB): 3.63\
Params size (MB): 0.75\
Estimated Total Size (MB): 4.38\
----------------------------------------------------------------\
 Batch Size: 100.0000 Learning Rate: 0.1000 Shuffle: True\
…
